…
lassify the trips of the selected archetypal drivers: \\[\\phi: [-1,1]^{300\\times5}\\rightarrow (0,1), ~~ z\\mapsto\\phi(z).\\] We call the sigmoid probability of the output neuron \\(\\phi(z)\\) as the risk score of trip \\(z\\). If the output neuron \\(\\phi(z)\\) is close to 1, then this trip gets a higher risk score. The 1D CNN is constructed as follows: Layer (type) Output Shape Param # =========================================================================== trips (InputLayer) [(None, 300, 5)] 0 ___________________________________________________________________________ cov1 (Conv1D) (None, 294, 32) 1152 ___________________________________________________________________________ ave1 (AveragePooling1D) (None, 58, 32) 0 ___________________________________________________________________________ cov2 (Conv1D) (None, 52, 16) 3600 ___________________________________________________________________________ ave2 (GlobalAveragePooling1D) (None, 16) 0 ___________________________________________________________________________ dropout (Dropout) (None, 16) 0 ___________________________________________________________________________ dense1 (Dense) (None, 8) 136 ___________________________________________________________________________ dropout_1 (Dropout) (None, 8) 0 ___________________________________________________________________________ dense2 (Dense) (None, 1) 9 =========================================================================== Total params: 4,897 Trainable params: 4,897 Non-trainable params: 0 ___________________________________________________________________________ The calibration is shown in Figures 6.13 and 6.14. We save the network weights which lead to the lowest validation loss. The validation accuracy is around \\(70\\%\\) and the test
…
